model.pt (torch, 8628 bytes, 6 tensors)

0.weight f4 [30, 2]
000000 75 80 18 bf 82 d4 28 bf 43 69 40 be 1e d5 0f 3f
       -0.5957101 -0.6594926 -0.18790154 0.56184566
000010 27 61 b3 3e 50 38 eb 3e 7e fa 26 be 6a f3 1f 3f
       0.3503506 0.459414 -0.16306493 0.62480795
000020 e8 6a a9 be 0a da 26 bd 32 ad 23 bf 23 0c a7 3c
       -0.33089375 -0.040735282 -0.6393615 0.02039153
000030 17 10 35 3e 9c 5a 31 bf 55 fa 17 3f 14 1e 06 3e
       0.17681919 -0.69278884 0.5936635 0.13097411
000040 82 1d 2c 3f 74 b1 9a be 8a 75 de 3c 2f 4b 65 be
       0.67232525 -0.3021351 0.027155656 -0.22391962
000050 e8 a1 19 3f 3f e8 cc be 63 38 d8 3e cd b3 02 bf
       0.60012674 -0.4002094 0.4223052 -0.51055604
000060 25 2e 0a 3f be e6 29 bf 40 e1 ab be ee f1 a9 be
       0.5397666 -0.6636771 -0.3357029 -0.3319239
000070 14 d1 ba bd bd 69 02 bd d9 a6 6e 3e be 9b 21 3f
       -0.0912191 -0.03183912 0.23305835 0.6312827
000080 4b 5d cf 3e 96 ef a7 be 72 a2 2a 3f d2 e0 e2 bd
       0.40500864 -0.32799977 0.6665412 -0.11078037
000090 1b a4 c9 be e8 7a 87 3e 83 42 14 be aa e3 30 3f
       -0.39383015 0.26460958 -0.14478497 0.6909739
0000a0 c9 2d 41 3d 44 14 fa 3e a6 5a 3f 3e 2d a8 f0 be
       0.047162805 0.48843586 0.18686923 -0.47003308
0000b0 fb be 35 3e ce f7 d9 be 4d 20 40 be 3e ea 69 be
       0.17748635 -0.42571872 -0.18762322 -0.22843263
0000c0 eb 48 10 bf 06 53 8f 3e 61 15 03 3f 17 0e 34 bf
       -0.56361264 0.2799303 0.51204497 -0.70334
0000d0 f1 fd cb 3e 7d c0 11 bf 4e a3 31 bf 7b f7 7d 3e
       0.3984218 -0.5693434 -0.6938981 0.24801438
0000e0 53 19 51 bc 65 98 df be e6 7a 24 3f f6 50 3a 3d
       -0.012762385 -0.43670955 0.6425003 0.045487367

0.bias f4 [30]
000000 78 46 e3 be 19 85 a7 3e dd 7e 49 3d 71 a4 e5 bd
       -0.443897 0.32718733 0.049193252 -0.11213005
000010 da 58 00 bf 41 b6 5a bd 3a ea ce 3e 69 63 b1 be
       -0.50135577 -0.053396467 0.40413076 -0.34646156
000020 9d 28 a7 3e d3 46 32 bf 20 c0 88 be 6a 05 60 be
       0.32648173 -0.6963932 -0.2670908 -0.21877065
000030 d5 02 1e bf 84 2a 82 3e ef 74 0d bf 3c 45 d2 3e
       -0.6172307 0.25423062 -0.5525655 0.41068447
000040 94 4a 17 3e 8a f0 f7 3b da c0 c0 be 5e c2 74 be
       0.14774543 0.0075665163 -0.37647134 -0.2390227
000050 69 d4 29 3e d2 be 2c 3f 29 ad a8 be 00 f4 f5 be
       0.16584934 0.6747867 -0.3294461 -0.4803772
000060 ff 07 9f be ae 3e 00 bf 94 b2 b9 bd cf 3f 00 bf
       -0.31060788 -0.5009564 -0.09067264 -0.50097364
000070 43 16 03 3f 82 5b fe 3e
       0.51205844 0.4967919

2.weight f4 [30, 30]
000000 f2 0b ea bd 08 d5 28 3e e1 3a 18 3d a7 a2 e3 bd
       -0.1142806 0.16487515 0.037165526 -0.11115008
000010 b8 24 82 3d 4d 87 24 be 8c ce d1 bd 02 80 0a be
       0.0635466 -0.16067238 -0.10244474 -0.13525394
000020 5e 93 dc bd c3 41 21 bd 2a 25 11 3d e4 11 ef 3c
       -0.107702956 -0.039369356 0.035435833 0.029183336
000030 80 65 3c be e3 26 32 be 5c 47 d5 bc dd e2 1f 3e
       -0.18398094 -0.17397647 -0.026035003 0.15613885
000040 27 14 7f 3d 31 47 21 3e fc 5f a7 bd d6 79 65 3d
       0.06227508 0.15749814 -0.081726044 0.056024395
000050 62 06 21 be ff 20 ba 3d 69 4b f4 bb 4f c4 4e bc
       -0.15725091 0.09088325 -0.0074552787 -0.012620046
000060 ab 48 be bd ea 6d 29 be 25 03 96 bd bd 44 3d bc
       -0.09291204 -0.16545835 -0.073248185 -0.011552033
000070 e1 96 cc bd c5 50 93 3d f7 8f 15 bd 0f e5 40 bb
       -0.09989715 0.0719314 -0.03651425 -0.0029433405
000080 e5 1e 2d be 92 c4 d5 3c 85 1d cd bd b8 46 24 be
       -0.16906317 0.026094709 -0.10015396 -0.16042602
000090 76 05 41 bd ab df 18 be 2a d7 e4 bd 09 03 0e 3e
       -0.04712435 -0.14929073 -0.11173852 0.13868345
0000a0 eb b2 38 3e ad 67 c8 bd 6e ba 8d 3d 79 2b c7 bd
       0.18037002 -0.097853996 0.06920324 -0.097250886
0000b0 fb 7e 29 3e eb 76 da 3d a1 bd c8 3d a3 82 fd bd
       0.16552345 0.10667213 0.09801794 -0.123784326
0000c0 39 8d e3 bd 72 33 83 bd 1b ab 31 be 64 0c b5 bd
       -0.111109205 -0.06406297 -0.17350428 -0.08840254
0000d0 36 24 84 3d 5c 1c 1b be 33 fe bc 3c ef ad de 3c
       0.06452219 -0.15147537 0.02307043 0.027182547
0000e0 30 bf 7c 3c 82 33 9f bd ea 82 ad bd 24 20 1d be
       0.015426442 -0.07773496 -0.084722355 -0.15344292
0000f0 02 63 00 be 7a 9c 0a 3e e5 f2 55 bc a2 b4 32 3e
       -0.12537768 0.13536254 -0.013058399 0.17451718
000100 72 37 00 3c c0 47 cb bc e7 57 e7 3d b6 94 2d be
       0.007825719 -0.024814487 0.11296063 -0.1695126
000110 98 a6 df bd f1 66 d6 3d 6e 3e 32 bd 3c b3 17 3e
       -0.10920447 0.10468853 -0.04351657 0.14814466
000120 a1 6b 55 bc 85 b4 04 3e 03 7b fe 3b 29 b3 99 3c
       -0.013026149 0.12959488 0.007766129 0.018762188
000130 e5 4b 1a be 93 cf 73 bd a0 31 c7 3b 9c 16 a4 3d
       -0.15068014 -0.05952413 0.006078914 0.08012125
000140 79 05 0d 3d 1d 72 17 bd f6 4c 4a 3b ef ee 1f 3e
       0.034429047 -0.03697406 0.0030868626 0.1561849
000150 d2 f7 f1 3d a6 8f 87 3d 2f b4 02 be 0d 10 85 bd
       0.11814846 0.06619196 -0.12764047 -0.06497202
000160 82 96 f2 3d 83 0a 2b 3e 5e c5 ae bd e6 b3 ba 3d
       0.11845113 0.16703229 -0.085337386 0.09116344
000170 d8 e2 2b bd 90 d1 06 3e cf 8b b5 bc e8 82 07 be
       -0.041964382 0.13165879 -0.022161392 -0.1323353
000180 d2 69 49 be 60 03 86 bc e3 a6 1a 3d c6 59 e2 bd
       -0.19669273 -0.016359031 0.03775681 -0.11052279
000190 6f c2 ff 3d 60 d0 8c 3d d0 9e bb 3d e9 ce ae 3d
       0.12488257 0.06875682 0.091611505 0.08535559
0001a0 c3 22 32 be dc 4a ec bc c5 41 a3 3d e5 65 9b 3d
       -0.17396073 -0.02884429 0.07971529 0.07587794
0001b0 55 9e 1d be 89 3c b3 bd 5f b9 0f 3e a1 74 25 be
       -0.1539243 -0.087517805 0.14035557 -0.16157772
0001c0 ee b5 02 3e db f4 0e bd 3c ac e6 3c 15 54 8e 3d
       0.12764713 -0.03490148 0.0281583 0.06949631
0001d0 41 13 f9 3c 60 5b d3 bd 29 26 53 3d 04 cb 29 be
       0.030404689 -0.10320163 0.051550064 -0.1658135
0001e0 24 23 be bd e7 16 0e bd 48 df 14 bd 94 cc 04 3e
       -0.09284046 -0.03468981 -0.03634575 0.12968665
0001f0 9c 19 cf bd 6e e7 19 3e 8c 04 b5 3d 74 23 7c 3d
       -0.101123065 0.1502969 0.08838758 0.06155725
000200 0e cb 08 3e 87 da fe bd 4e 10 1d be 3a 9c 2b 3c
       0.13358709 -0.124440245 -0.15338251 0.010474259
000210 14 f2 bf 3d 51 e0 bb 3d 30 1b e0 3b f8 42 32 3e
       0.093723446 0.09173644 0.0068391785 0.17408359
000220 3a 86 8b 3d c1 2b a8 3d 44 e2 ba bd 94 b8 56 3d
       0.06812711 0.082114704 -0.09125188 0.05242212
000230 39 88 8e bd 7c 95 14 be ac 0f ef bd 95 a4 e2 bd
       -0.06959576 -0.14510149 -0.11672911 -0.11066548
000240 8e 7b fc bc 45 85 94 bd df b6 2f 3e 4f 1b 94 3d
       -0.030820634 -0.07251982 0.17159604 0.07231771
000250 b8 a5 19 be bb 15 23 3c 5e c7 22 3e 3a 82 8e 3b
       -0.15004623 0.009953911 0.15896365 0.0043490203
000260 e5 a9 f6 3c e9 05 83 3d 27 f3 60 bd da 0b db bd
       0.030110309 0.06397612 -0.05491939 -0.1069562
000270 35 f0 a9 bd fe 92 64 bd 05 75 04 3e 2f c0 19 be
       -0.08297769 -0.055804245 0.12935264 -0.15014718
000280 81 e3 02 3c 6e 5d af bd 00 50 12 bd 5e 03 7b bc
       0.0079888115 -0.08562742 -0.035720825 -0.015320627
000290 27 f9 8b bd eb 92 3a 3d 90 f2 f2 3c f9 e3 f0 bd
       -0.068346314 0.04555027 0.029656678 -0.11762232
0002a0 f2 90 fc 3d 48 6e 37 3e e6 10 8e bd ff f1 df 3c
       0.123323336 0.17913163 -0.06936817 0.027337072
0002b0 ae 7a 9d bd 85 24 01 3e e4 73 67 ba be 67 38 be
       -0.07689415 0.12611587 -0.000882922 -0.18008325
0002c0 d9 3d d3 3c 5f ba 27 3e b6 13 df bb 2a 4e 62 bd
       0.025786327 0.16379689 -0.0068077696 -0.055250324
0002d0 e4 02 1e bc fe d4 a3 3d e2 df 20 3e 6d 2e 97 bd
       -0.009644244 0.079996094 0.15710405 -0.07381902
0002e0 a7 9d af 3d cb d7 9e 3d 7c a9 44 3e e9 69 18 3e
       0.08574992 0.07756003 0.19205278 0.14884152
0002f0 33 89 f7 bd b7 23 17 be eb 71 f0 bd e2 60 16 3e
       -0.120867155 -0.14759718 -0.11740478 0.14685395
000300 85 73 74 bd d6 05 c8 3d cb ac 05 bd 00 f8 a5 bd
       -0.05968048 0.09766738 -0.03263549 -0.08103943
000310 4f 2b 29 3e c6 5e 05 bc 07 23 f9 bd f6 8c 67 bd
       0.16520427 -0.0081402715 -0.12164884 -0.056530915
000320 bf e6 02 be 24 9d 1f be f1 da 5d bc 43 1e 54 bc
       -0.12783335 -0.15587288 -0.013540969 -0.012946668
000330 2e e6 06 be 12 81 49 3e 47 c4 e5 bb 5d cf 94 bd
       -0.13173744 0.19678143 -0.0070119235 -0.07266114
000340 93 3d 23 3e f9 63 1e 3d c9 e6 20 bd 0d 36 58 3d
       0.15941457 0.03866956 -0.039282594 0.05278592
000350 7c f4 29 be a6 d3 45 3e e9 fe 60 3d 55 da 9c 3d
       -0.1659717 0.19319019 0.0549306 0.07658831
000360 ae b7 18 be 51 d1 05 3e 67 65 29 be 90 b6 82 bd
       -0.14913818 0.13068129 -0.16542588 -0.06382477
000370 87 e3 08 be 7c b3 dc bd 31 35 bf 3c 7d a5 37 be
       -0.13368045 -0.107764214 0.023340793 -0.17934223
000380 2f 49 33 be 55 97 31 3d 96 3f 3d 3d 97 31 36 bc
       -0.17508386 0.043357212 0.04620322 -0.011120222
000390 cb b9 6a bd 2d 9a 17 bd 0c aa a4 bc 61 0c 43 bd
       -0.057306092 -0.037012268 -0.020100616 -0.047619227
0003a0 fa a8 f8 bd da 34 0f 3e f9 c2 51 3d be 25 0e be
       -0.12141605 0.13985005 0.05121133 -0.13881585
0003b0 3d 7f 5b bd 99 2f f2 bd 42 3e ea bd 03 8e 03 3e
       -0.05358814 -0.11825485 -0.11437656 0.12847142
0003c0 5f 57 6d 3d c0 c9 b5 3d ed bd c5 bc c6 39 0e bd
       0.05794465 0.088763714 -0.024138415 -0.034723066
0003d0 cc e6 e8 3c 0d 19 f6 bd 35 99 45 be 76 71 f8 3d
       0.028430365 -0.12016497 -0.19296725 0.12131016
0003e0 ee b9 03 bc 79 33 e1 3d 3c 79 fe 3d 79 69 8a 3d
       -0.008039935 0.10996146 0.12425467 0.067583986
0003f0 34 62 99 bd c0 e1 03 bd af 13 e5 bb 5b d5 50 3c
       -0.07489434 -0.032197714 -0.006990872 0.01274618

2.bias f4 [30]
000000 5a 3b 2d 3e 0c bb 93 3c 4b 4b 4f bc cb 00 89 bc
       0.16917172 0.018033527 -0.012652229 -0.01672401
000010 fd 84 34 be b4 7c f8 3c 4c c5 0f be 7c 3b 4a 3c
       -0.17628856 0.0303329 -0.14040107 0.012343284
000020 cb f4 3b bd 81 c9 e6 3d 10 a8 96 bd 3c 37 07 3e
       -0.04588775 0.112689026 -0.07356274 0.13204664
000030 af a2 20 bd bc e3 20 bd b4 0e 27 be 35 4b 23 3e
       -0.039217647 -0.039279684 -0.16314203 0.15946658
000040 37 64 7b 3c 15 f8 22 be 22 34 35 3c 4e 23 99 3d
       0.015343717 -0.15914948 0.011059793 0.07477437
000050 6e ae 02 bd e3 00 17 3e ec 49 bd 3d 5f fd d8 bc
       -0.03190463 0.14746432 0.09242615 -0.026488004
000060 71 ba 3c 3e 0c bc 04 3e 3a cb f9 bc bd 82 79 bc
       0.18430497 0.12962359 -0.030492414 -0.015228924
000070 c1 d2 75 3d c7 b0 68 bd
       0.060015444 -0.056809213

4.weight f4 [2, 30]
000000 0e cb ed 3d 80 a0 2e be 3c 77 04 bd 21 6d 71 3c
       0.11610995 -0.17053413 -0.032340273 0.014735491
000010 8b fe 2d be 97 31 93 3c 97 7f 1d be 72 d8 3a 3e
       -0.16991632 0.017967982 -0.15380703 0.1824663
000020 20 9f da ba 13 99 bc bd c4 5d 81 3d 6a 34 85 bd
       -0.0016679503 -0.09208884 0.063167125 -0.06504138
000030 29 d5 c9 bc 1a 8a 53 3d af a8 2c bd 35 ca ec bb
       -0.024637775 0.051645376 -0.042153057 -0.0072262534
000040 82 bb fa bd 82 d9 5e bd 15 29 29 be 3c 5b f0 3d
       -0.122427955 -0.05440665 -0.16519578 0.117361516
000050 37 a8 1f be c3 de 3f be e5 6e f6 3d bb 19 92 3d
       -0.15591513 -0.1873732 0.1203287 0.07133814
000060 39 c3 dc bc f6 09 4d 3d 82 9a 1d 3e 0c 5e 31 bd
       -0.026948558 0.050058328 0.15390971 -0.04330258
000070 ef ef 76 be b0 12 32 be b7 a6 32 3d 7c 3f 87 3d
       -0.24114965 -0.17389941 0.043616023 0.066039056
000080 eb cd 80 bd d3 86 a9 bd bc 7a 17 be 58 bb 4f be
       -0.06289276 -0.08277669 -0.14792913 -0.2028631
000090 d8 72 32 3e 07 b7 43 bd 61 0a ba bd a2 4a 57 be
       0.17426622 -0.04778197 -0.09084011 -0.21024564
0000a0 26 61 41 3e b9 2a 85 bc 9b 70 3e 3e 07 fb 0e be
       0.18884715 -0.016255723 0.18597643 -0.13962947
0000b0 b4 22 69 be d4 4b b3 3c 7b b0 3b 3e f5 dc 06 3e
       -0.22767144 0.021886744 0.1832904 0.13170226
0000c0 ca 9b 8f 3e 60 07 ed 3d 48 4b 17 3e 09 03 45 bd
       0.28048545 0.11573672 0.14774811 -0.048098598
0000d0 d9 c7 0d 3e 29 6f be bd b8 c5 15 3e aa 3b 24 3d
       0.13845767 -0.09298546 0.14626205 0.040095963
0000e0 5b d7 a9 bd 37 9e 0b bd f9 0d 81 3d 04 19 07 3e
       -0.08293029 -0.034086432 0.06301493 0.13193136

4.bias f4 [2]
000000 fb 63 f1 3d bd cc 79 3d
       0.11786648 0.06098627
